chatbot_model.pth (torch, 169373 bytes, 6 tensors)

fc1.weight f4 [128, 236]
000000 e6 30 5d bd 89 ae ad bd 89 ab 46 be 75 b9 19 3e
       -0.05400171 -0.084805556 -0.19401373 0.15012152
000010 6c 0a 81 3d e5 73 dd 3c db 74 02 3e bf ae 1d 3e
       0.06300816 0.027032802 0.1273989 0.15398692
000020 18 22 5c 3c 07 1f 01 3e 6c ab 9a bd 69 9d 7c be
       0.013435863 0.12609492 -0.075522274 -0.24669422
000030 92 54 b4 bd 5d e8 c7 3d 54 ee 55 3e 3d e8 da 3d
       -0.08805193 0.09761117 0.20891696 0.10688827
000040 c8 9a 85 3b c0 dc 4c bd 97 d1 67 bd b0 c3 8a bb
       0.0040772893 -0.05001521 -0.056596365 -0.0042347535
000050 f3 cb 91 3e fb 03 fe bd 8b fc d9 bd 4a 52 95 3d
       0.28475913 -0.12403103 -0.10643872 0.07291086
000060 e7 58 8a bd 03 df 74 be 00 0e 42 be ad 36 79 be
       -0.06755238 -0.23913197 -0.18950653 -0.24337263
000070 05 de 79 bd 85 ab b1 bc 47 a7 08 be a2 8f 91 3d
       -0.06100275 -0.021688232 -0.13345061 0.07107474
000080 89 81 a8 3e f8 6b dc 3e 65 99 82 be c1 1c ba 3d
       0.32911327 0.43051124 -0.25507656 0.090875156
000090 cb 2d 88 3d 66 30 65 be be dc 71 3e 19 6e 68 bd
       0.06649359 -0.22381744 0.23619363 -0.056745622
0000a0 48 ad 2a be 82 27 61 bc 08 17 78 be 22 4c 59 bd
       -0.16667664 -0.01374233 -0.24227536 -0.05305112
0000b0 d6 03 35 be 77 4b f0 3d 21 cc 49 3b b0 95 16 3e
       -0.17677245 0.11733144 0.0030791836 0.14705539
0000c0 2a 8c 9a 3d 9a e2 66 be 01 d4 7a be 32 c1 74 bd
       0.075462654 -0.22547379 -0.24494936 -0.059754558
0000d0 9d 08 fc 3b 67 fc 8b 3d f5 e7 10 be 23 e8 51 be
       0.0076914565 0.06835251 -0.14150985 -0.2049871
0000e0 53 d3 83 bc 7f bb 82 bd 70 b9 86 bd ec 3a e1 3e
       -0.016091978 -0.06383418 -0.06578338 0.43990266
0000f0 dd 78 d7 3c d3 1d 13 be 52 0c f4 bd 26 df 98 3d
       0.02630275 -0.14366846 -0.119164124 0.07464437
000100 dc f7 10 be 19 46 6a bd 58 29 3b 3e 22 8c 47 be
       -0.14157051 -0.057195757 0.1827749 -0.1948705
000110 14 97 13 be 80 c9 e9 bc f6 00 2e 3e fa e5 1e be
       -0.144131 -0.028538465 0.16992554 -0.15517417
000120 ab 01 b0 bc 1f f0 9a 3e c8 9e 58 be ff 02 7b 3d
       -0.02148517 0.30261323 -0.2115432 0.061282154
000130 75 cc 01 bd 36 9c 65 bd 12 46 3e 3e 96 7e 02 bf
       -0.031689126 -0.056057177 0.18581417 -0.50974405
000140 46 f6 97 be 2e e4 87 3d 29 1c 1d bd 05 b5 7a 3d
       -0.2968008 0.06635319 -0.038356934 0.06120779
000150 4a 73 95 3d b7 08 cd 3e c5 a8 8b 3e fa d5 b3 3e
       0.0729738 0.4004571 0.27277198 0.3512419
000160 d1 52 1a be 90 10 18 3e 81 38 d4 3e d2 c6 41 3c
       -0.15070654 0.14850068 0.4144936 0.011827188
000170 97 79 d8 bb 95 f3 01 bf 47 82 a6 bd 72 b2 63 be
       -0.0066062915 -0.507623 -0.08130317 -0.2223604
000180 00 dc 55 39 81 a3 ea bc 55 6f 95 3e 1e 59 37 3e
       0.0002039522 -0.028642418 0.29186502 0.1790509
000190 9b 1b 6c bc 1d 07 9c 3e 8c 27 ad 3e 80 61 01 3d
       -0.0144108785 0.30474177 0.33819234 0.031587124
0001a0 37 d7 21 be 84 8f d2 3e 37 57 99 3e 54 88 a5 3e
       -0.15804754 0.4112512 0.29949352 0.32330573
0001b0 90 30 83 be 57 85 1b be cd 8d a5 bb f3 34 6d bd
       -0.25622988 -0.15187584 -0.0050523044 -0.057911824
0001c0 d8 54 c8 bd b3 de 31 bd 77 15 79 bd 6b 6c 47 3e
       -0.09781808 -0.043425273 -0.060811486 0.19474952
0001d0 1c d7 be bd d4 ef e1 3c 89 3d 5c be 24 f0 62 be
       -0.093183726 0.02758018 -0.21507849 -0.22161919
0001e0 ee 7a 26 be e8 dd 7f bc 53 9f 99 3e a5 24 b3 bd
       -0.16257831 -0.015616871 0.30004367 -0.08747224
0001f0 2a a3 f8 3d c0 79 1d be eb f4 15 be 8d 65 10 3e
       0.12140496 -0.15378475 -0.1464421 0.14101239
000200 f6 0b b0 bd 98 ba b6 bd 47 54 09 bd 15 ba 86 3d
       -0.08596031 -0.08922309 -0.03352764 0.06578461
000210 a9 0b b5 bd 03 5d c1 bd c0 80 a9 3a 3d f5 b9 bd
       -0.088401146 -0.09441569 0.0012932047 -0.090799786
000220 60 a9 af 3e ac 58 a9 bd 23 e7 7e 3e 41 db f7 bd
       0.3430891 -0.08268866 0.24892859 -0.12102366
000230 9e 7a 98 bd e6 7c f5 3e fa 0b 5e bd 3d fe 1b be
       -0.07445262 0.47946852 -0.05421064 -0.15233703
000240 79 29 a6 3e 31 db 4c bd 02 02 b2 bd 3e f8 af 3c
       0.32453516 -0.050013725 -0.08691789 0.021480676
000250 d0 07 37 3c 10 5e d0 3e 3c 98 d4 bc 7f 01 ca bd
       0.011171296 0.40696764 -0.025951497 -0.098635666
000260 de f3 27 bd 7f 99 77 3e 67 06 91 3c ee 15 0e 3e
       -0.041004054 0.24179648 0.017703248 0.13875553
000270 ec f1 2f bb 16 8a 1f 3e 00 92 37 3a 14 20 2a be
       -0.0026847078 0.1558002 0.00070026517 -0.166138
000280 89 b9 34 3d 1b 24 21 3e 38 12 ee 3d b4 0f dd 3d
       0.044122253 0.1573643 0.11624569 0.10794011
000290 39 52 1c 3e 09 77 cf bd 9c 2c d7 bd bb bd 67 3e
       0.1526574 -0.10130126 -0.105065554 0.2263097
0002a0 72 83 5e be 69 29 a9 3d bf df 20 3c 4b d9 05 3e
       -0.2172983 0.082598515 0.00981897 0.13071172
0002b0 0e 53 8e be 32 4d 2e bd 6a e4 43 bd b2 7f 06 be
       -0.2779774 -0.042554088 -0.047825254 -0.1313465
0002c0 3e 8d 9a bd 5f b5 50 be df e9 9f bd b1 c2 8c be
       -0.07546471 -0.20381688 -0.07808279 -0.27492288
0002d0 8e f8 05 be 59 a7 7a 3e 62 1d 3d be 20 de 7c bc
       -0.13083097 0.244779 -0.1846824 -0.015433818
0002e0 b9 26 25 be 7a 97 b8 bd 1a 89 03 3e 16 2e fa bd
       -0.16128053 -0.09013267 0.12845269 -0.122158214
0002f0 de c9 03 be 8b b5 f5 bd a1 cc 06 3f f5 56 9c be
       -0.12869975 -0.11997517 0.5265599 -0.30535093
000300 a5 60 03 3f 5e b2 af 3e 7c 30 58 bd a4 45 9d 3e
       0.5131934 0.3431577 -0.052780613 0.30717194
000310 ca 2a 3d bd af 4e b0 3c c0 dd 2a 3c 5a d2 10 be
       -0.046183385 0.021521894 0.010428846 -0.14142743
000320 16 ac 22 be 15 5b d1 be 29 ca 29 3e 10 a0 90 3e
       -0.15885958 -0.40889803 0.16581024 0.28247118
000330 78 89 a2 bd 51 08 d7 bd 56 d3 1c 3e bf e1 0f bd
       -0.07936376 -0.10499633 0.15314993 -0.035127398
000340 43 0f 02 bd 05 07 80 3c 0d 8f 1a be a7 77 42 3f
       -0.031752836 0.015628347 -0.15093632 0.75963825
000350 57 d6 18 3e e3 f1 93 3e 5f 0d 12 be ca 2d 1c 3e
       0.14925514 0.28895482 -0.14262913 0.15251842
000360 6c 82 f2 bc be 0b a5 3e 14 e2 59 bd 3d dc a4 3e
       -0.029603206 0.3223552 -0.05319412 0.32199278
000370 f9 19 d7 3d fd 18 2e 3c cb 84 91 bd e4 93 7a bd
       0.10503001 0.010626075 -0.071054064 -0.061176196
000380 0a ea 46 3e 2b f3 8c bd ce 45 d3 3e e8 db 4f 3e
       0.19425216 -0.06882318 0.41264194 0.20298731
000390 27 7a 2c be e7 84 01 3e 1f 40 ef bd c6 f4 dd 3e
       -0.16843472 0.12648354 -0.11682152 0.4335081
0003a0 1f 99 2d bd c5 d6 b6 bd c7 72 ac bc e0 b0 27 be
       -0.042382356 -0.08927683 -0.021050824 -0.16376066
0003b0 2a 18 d3 bc 29 b1 1f bd 5b 0c 30 bd 30 03 95 bd
       -0.025768358 -0.038987312 -0.042980533 -0.072759986
0003c0 45 a2 3d 3e f9 70 32 3e 1e 1d 54 3e 62 15 80 bc
       0.18518932 0.17425908 0.20714232 -0.015635196
0003d0 fc 30 00 3d 01 81 25 3e 93 06 a1 bd e7 0f a5 3e
       0.031296715 0.16162492 -0.07862582 0.32238695
0003e0 58 7d 41 3d e6 c2 71 3e a7 f6 79 3d 6a db 14 be
       0.047238678 0.23609504 0.06102624 -0.14536825
0003f0 95 73 09 bd 3f 6d ff bc 46 40 fc bd 05 25 8e 3e
       -0.033557493 -0.031180022 -0.12316947 0.2776262

fc1.bias f4 [128]
000000 78 44 df 3d d2 4f 9d bc fe fb f4 3d 5f 13 02 3e
       0.10901731 -0.0192031 0.11962126 0.12702702
000010 57 49 08 3e 0f fd 45 3d 46 89 0c 3e e7 ed 22 3e
       0.13309227 0.04833704 0.1372424 0.15911065
000020 7f e7 eb 3d 6b d6 07 3e 4b dd 18 3e d9 15 4a 3e
       0.11518764 0.13265388 0.14928167 0.19734897
000030 28 8c 32 3e ce b9 eb 3d 81 54 dc 3d c1 03 e3 3d
       0.17436278 0.11510049 0.10758305 0.110847004
000040 ee 2d 13 3d 25 74 4b 3d 71 2f 7b 3c 1d 67 1a bd
       0.035932474 0.04967131 0.015331135 -0.037695993
000050 b1 ee cc 3d 60 b8 6f bc 6b c6 45 3e 98 0f 1e 3e
       0.10006464 -0.014631361 0.19313972 0.15435636
000060 c1 64 c0 3d a5 d8 4a 3e e8 80 7e 3d c9 4c 32 3e
       0.09394217 0.19809206 0.062134653 0.17412104
000070 f5 1b 23 3e 55 7e 37 3e 8d 33 36 3d a1 f9 f4 3d
       0.15928634 0.17919286 0.044482756 0.119616754
000080 e7 fc 2d 3e 9c 9b 48 3e 4f 61 dc 3d 4a 12 17 bd
       0.16991006 0.1959061 0.10760748 -0.036882676
000090 84 e9 c4 3c 48 fb fb 3d 72 c9 c4 3d 1d 5c 11 3e
       0.02403713 0.123037875 0.09608735 0.14195295
0000a0 10 56 26 3d 4b d8 c8 3c bb cd 64 3e 15 c8 16 3e
       0.04060942 0.024517199 0.22344105 0.14724763
0000b0 80 3c 26 3e 41 24 52 3d 58 ec 2b 3e 3b 13 94 3d
       0.16234016 0.051304106 0.16789377 0.072302304
0000c0 82 b7 84 3c af be 3a 3e e8 5f 3e 3e e8 1c da 3d
       0.016200785 0.18236803 0.18591273 0.10650045
0000d0 fb 54 8c 3e 07 9d 0b bd 29 43 47 3e c4 a9 ea bc
       0.27408585 -0.0340853 0.19459213 -0.028645404
0000e0 7d f5 70 3c a9 fe f7 3d 01 af ba 3d 56 b5 e3 3d
       0.0147069665 0.121091194 0.091154106 0.111185715
0000f0 5a a9 5b 3e 60 24 b5 3d f7 a4 7e 3e 48 1c 23 3e
       0.21451321 0.088448286 0.24867617 0.15928757
000100 f4 38 62 3e 8b 50 09 3e d5 34 d5 3b ba 12 a7 3d
       0.22092038 0.13409631 0.006506542 0.08157869
000110 e8 4f 47 3e e8 ae 33 3e 7d 34 bf 3d 4e af a4 bc
       0.19464076 0.1754719 0.09336183 -0.020103123
000120 c5 85 2d 3e d9 a7 9f 3d db bf 51 3e 01 60 0e 3e
       0.1694556 0.07795686 0.20483343 0.1390381
000130 c5 53 aa 3c f5 45 1a 3e 3a d2 31 3e 73 45 f4 3d
       0.020791898 0.15065749 0.17365351 0.11927309
000140 fb 36 e1 3d 54 2b 5f 3c 27 ed 29 3e e4 ee 45 3e
       0.10996815 0.01362117 0.16594373 0.19329411
000150 f8 71 a6 3d 0b 1f 7f bc 90 30 31 3e da 89 c2 3d
       0.081272066 -0.015571366 0.17303681 0.09498949
000160 05 f2 05 3e 60 1b 01 3e 2b 24 2a 3d 87 34 b3 3d
       0.13080604 0.12608099 0.0415384 0.08750253
000170 df 5b e0 3d c7 55 89 3d c2 0c b8 3a fc a0 24 3e
       0.10955023 0.06705814 0.0014041888 0.16077036
000180 6d e8 9b 3d 64 4a 2a 3e fe 50 6b 3e f2 1e da 3d
       0.07612691 0.1662994 0.22980115 0.106504336
000190 54 36 0e 3e e3 b4 ef 3c 99 53 e2 3d b6 76 3d 3e
       0.13887912 0.029261058 0.11051101 0.18502316
0001a0 d7 a3 3c 3e 17 f4 16 3e a0 d0 61 3d c1 80 08 3e
       0.18421875 0.1474155 0.0551306 0.13330366
0001b0 f3 fc 10 3e 4a 17 45 bc d1 30 89 3d e8 70 34 bc
       0.14158992 -0.012029478 0.06698764 -0.011013247
0001c0 bc 77 b5 3d 68 e5 86 bc 7b df 45 3e ca 92 10 3e
       0.08860728 -0.016466811 0.19323532 0.14118496
0001d0 c7 2a f5 3d b3 1e fe bb 45 cd 0b bd 6e 5c dc 3d
       0.1197105 -0.0077551245 -0.034131307 0.10759817
0001e0 16 5c 2e 3d 1f a7 8c 3d c2 4a 00 3d 31 1e 09 3d
       0.04256829 0.06867813 0.031321295 0.03347606
0001f0 d0 b8 da 3d e7 0c 9b 3d 68 cf 57 3e 49 6b 85 3d
       0.106797814 0.0757082 0.21075213 0.06514604

fc2.weight f4 [64, 128]
000000 d6 23 bb bd f7 10 5c 3e ae 51 e4 bc 9a cf 3e be
       -0.091376945 0.21490847 -0.02787098 -0.18633881
000010 a6 78 e8 bc 9f 66 ae bd c8 9c 94 be 45 94 20 3f
       -0.028377842 -0.08515667 -0.29025865 0.6272624
000020 51 90 5c be 4f c1 02 be d3 69 b4 be 1d 0a bc be
       -0.21539427 -0.12769054 -0.35236987 -0.36726466
000030 3e 04 62 be 67 f6 af 3e 99 37 5f be be ac 82 3e
       -0.22071931 0.34367678 -0.21798553 0.25522417
000040 c5 8f 03 bc 11 c5 39 bd a0 8e 87 3e e7 79 2d 3e
       -0.008029883 -0.045353953 0.26476002 0.16941033
000050 ad ad 92 be 65 00 2e 3e 11 b0 05 be bd c3 1c be
       -0.2864813 0.16992338 -0.13055445 -0.15309043
000060 f1 52 aa 3e 15 3f 9f 3c af b5 80 3d 50 c6 88 3e
       0.33266404 0.01943926 0.062846534 0.267138
000070 78 37 0a be 58 97 9c be 61 3f 63 3e f5 01 53 3e
       -0.13497722 -0.30584216 0.22192146 0.20606215
000080 5d d0 ac bd fd 74 5a be ee e8 f4 bb 47 1a 1f 3e
       -0.0843818 -0.2133369 -0.0074740564 0.15537368
000090 6c 77 6e 3e 11 ba 82 3e 86 5a b3 bd ad b5 98 be
       0.23287743 0.25532582 -0.087575 -0.29826108
0000a0 29 77 0e 3f a6 8d 60 3e 91 eb a9 3d 96 d4 02 bf
       0.55650574 0.21929035 0.08296884 -0.5110563
0000b0 94 4f 19 3e 26 90 a7 3d 6d 0e 92 3d 93 4b 69 3e
       0.14971763 0.08181791 0.07131658 0.22782736
0000c0 5c 15 24 3f 63 a6 d8 be c2 30 bf bd 63 38 23 3d
       0.6409509 -0.42314443 -0.09335472 0.039848696
0000d0 d6 ec 71 3d 71 a3 82 bd e4 86 24 be a5 2a f3 3e
       0.059063755 -0.0637883 -0.16067082 0.47493473
0000e0 65 3b 1c be f6 52 b5 3e 30 21 81 3e f5 2f 8b 3e
       -0.15257032 0.35414857 0.25220633 0.27185026
0000f0 5e 22 56 be ab b3 21 3e a4 bb ce 3d 34 59 f3 3e
       -0.20911548 0.15791194 0.10094383 0.47528994
000100 8b 79 32 be f6 6b a8 3e 67 47 e6 3d 1c 09 4e 3d
       -0.17429177 0.32894868 0.11244088 0.050301656
000110 da 3a 29 be 9d 58 50 be 59 37 57 be b6 b4 9a 3e
       -0.16526356 -0.20346303 -0.21017207 0.30215997
000120 0b 63 82 3d 01 97 30 3e 37 5e b3 be cb fb ba be
       0.06366547 0.17245103 -0.35032818 -0.36520228
000130 a7 29 aa bd 11 1b 11 3e 57 80 ce be dc 1c 90 3e
       -0.08308726 0.14170481 -0.4033229 0.28147018
000140 91 a0 3d 3e 8a 31 b3 3e 1b b8 b1 bd 99 60 0d be
       0.18518282 0.34998733 -0.086776935 -0.1380638
000150 8e 77 06 bd cd 8f 63 3e 49 d4 0e 3c 69 40 3b 3f
       -0.03282886 0.22222824 0.008717605 0.7314516
000160 6b 1c fc bd 95 cd d3 bb 98 36 12 3e bb 83 77 3e
       -0.12310108 -0.0064637163 0.14278638 0.24171345
000170 da e2 85 3e de a6 72 be 8b bf 37 bd ef c2 6c be
       0.26149637 -0.23696467 -0.044860404 -0.23121236
000180 e2 9e 08 3f fb c7 09 3e 04 d3 9c 3e fc d9 ab 3d
       0.53367436 0.13455193 0.30629742 0.083911866
000190 0b 2f c9 bc e7 2b da 3e 00 a5 5f 3e ea 86 af be
       -0.024558565 0.4261162 0.21840286 -0.3428262
0001a0 02 ad 6e 3e 41 f6 30 bc 66 d8 17 3f e9 9d 0a be
       0.23308185 -0.010800899 0.5931457 -0.135368
0001b0 1e ee 00 be 10 56 ad bd 1e 20 6f 3d b2 90 c7 bd
       -0.12590834 -0.08463681 0.05838024 -0.09744395
0001c0 04 e1 e8 3c 06 05 c6 3e 3b cf a6 3d 42 65 37 3d
       0.028427608 0.38675708 0.08144995 0.0447743
0001d0 7d 44 03 bd 82 90 b3 3e f5 64 b3 3d f6 9a 9c bd
       -0.032047737 0.35071188 0.087594904 -0.07646744
0001e0 a5 ef d7 3b 6f 3b 97 be 44 66 83 ba 77 9f 5d 3e
       0.006589847 -0.29537532 -0.0010024984 0.21642862
0001f0 4b 44 ae 3d d6 8c 16 3e 8e 9e ff be 89 99 7b 3d
       0.085091196 0.14702162 -0.49925655 0.06142572
000200 50 f3 19 3e 97 fb be bc c0 81 ad bc 61 43 db 3c
       0.15034223 -0.023313327 -0.021180034 0.026765527
000210 9f 16 bd be 1b f0 ed 3d 1f 2d 15 3d 7b 01 74 3c
       -0.3693132 0.11618062 0.036419984 0.014892931
000220 69 57 c3 bd e6 29 05 3f 6c 5a 3d 3e 9f 87 2b be
       -0.095381565 0.52017057 0.18491524 -0.16750954
000230 2b 77 17 3b fe 19 07 3d fb 78 9f be 5e d3 51 3d
       0.00231118 0.032983772 -0.31146988 0.051226966
000240 3c b5 0f 3f ff 46 16 bd 7e bc 57 3a b9 cc bd 3c
       0.56135917 -0.0366888 0.00082296866 0.023168908
000250 39 79 92 3d 9f 95 0f be ae 7e 8f be 82 c9 ec bb
       0.07152028 -0.1402192 -0.28026336 -0.00722617
000260 8f a1 42 3c 62 f7 2e 3e 6b 0f 0e 3f b3 17 18 3f
       0.011879339 0.17086557 0.55492276 0.5941116
000270 b9 d5 e4 3b 42 4d a9 bd 8a e9 24 3f 12 65 9b bd
       0.0069834855 -0.08266689 0.6441885 -0.07587637
000280 ea d7 8f 3d 2d b8 a1 be 0b d3 9d bd ee 10 ff 3e
       0.07023604 -0.31585827 -0.07706269 0.49817604
000290 99 4e b0 bc 87 c5 26 bd e8 ef 92 be 98 0c 0d be
       -0.021521853 -0.04071572 -0.2869866 -0.13774335
0002a0 52 15 ab bd ba b2 fd 3d 52 f4 fc 3d d3 24 63 39
       -0.08353676 0.12387605 0.12351288 0.00021662125
0002b0 17 55 3d bd c2 35 40 be 95 e4 7b 3c 0a d3 cc be
       -0.046223726 -0.18770507 0.015374322 -0.4000476
0002c0 d6 22 10 bd 38 a5 a0 bd 94 d4 6a 3e a8 9b 3d 3e
       -0.035189472 -0.07844013 0.22932655 0.1851641
0002d0 3a 96 09 be 25 97 23 3e 78 82 05 be 3c 87 28 be
       -0.13436213 0.15975626 -0.13038051 -0.16457838
0002e0 62 47 11 be fe 4d 0a 3e c7 8f 0f 3e 65 66 bf 3d
       -0.14187387 0.13506314 0.1401969 0.09345702
0002f0 ab f2 1d be ea f2 28 3e 2a 99 57 be 4e 07 b3 3e
       -0.15424602 0.16498914 -0.21054521 0.3496651
000300 87 08 c7 3d 00 18 2c be 20 ce 91 be 52 9c ed be
       0.09718423 -0.1680603 -0.28477573 -0.46408325
000310 ac 24 f9 3e 7b 23 65 be 38 44 48 3e 8b cd 10 3f
       0.4866079 -0.22376816 0.19557273 0.56563634
000320 c2 de 9c 3d be 42 e8 3c 0a 2f 84 be 19 84 9d 3d
       0.07659675 0.028352138 -0.25817138 0.07691211
000330 0b 3e 4d be 7c 60 86 3d d1 db 85 be 87 ab 75 bb
       -0.20043199 0.06561372 -0.2614427 -0.0037486271
000340 d9 fc b7 3e 21 02 b9 3e e5 62 88 3d d6 db c4 3e
       0.35935095 0.36134437 0.06659488 0.38448972
000350 68 01 bf 3e b8 1c 5a 3d 49 88 ef bd ea e4 20 bd
       0.3730576 0.053250045 -0.11695916 -0.03928081
000360 1d f0 65 be 71 51 2b 3e 15 5a aa be f5 07 0b 3f
       -0.22454877 0.16730286 -0.33271852 0.54309016
000370 26 eb 94 3b f1 fb c6 3e 27 48 86 bd de bb d1 bc
       0.0045446334 0.3886409 -0.06556731 -0.025602277
000380 86 0a ee bc 03 33 6f 3f e1 6c 09 3d 2b 75 6e bd
       -0.029057752 0.9343721 0.0335511 -0.05821721
000390 ce e5 3a be a4 7e c4 bd 76 4e 24 3f 36 39 04 3e
       -0.18251726 -0.09594467 0.6418222 0.12912449
0003a0 06 fe 49 3f 42 cd 78 3e c6 ed 04 be 90 57 90 3d
       0.78903234 0.2429705 -0.12981328 0.07047951
0003b0 f8 14 6c 3e b3 7c f7 3d f0 e3 fa bd b1 83 94 bb
       0.23054874 0.12084331 -0.12250507 -0.0045323004
0003c0 dc 73 20 3f 52 77 cf 3d 2f 14 46 be c3 02 9f be
       0.6267679 0.101301804 -0.19343637 -0.31056795
0003d0 69 36 9f bc f9 53 94 3d d1 c4 2a 3e 87 55 6a be
       -0.019435124 0.07242579 0.16676642 -0.22884189
0003e0 4f ce 4b 3e 20 66 1d 3e 1b a8 91 be 08 c2 f7 bc
       0.19902919 0.15370989 -0.28448567 -0.030243888
0003f0 af 55 24 bd 1d 5a 05 3f 5c cf 76 be c6 4f 2e 3e
       -0.040120777 0.52090627 -0.24102539 0.17022619

fc2.bias f4 [64]
000000 1e 6f 0e 3e 99 71 cb 3d 59 82 f8 bd b0 3a f0 bc
       0.13909575 0.099337764 -0.12134237 -0.02932486
000010 52 ca c3 3c ad f2 5d 3e c7 4a ab 3d 66 5a 2e bd
       0.023900185 0.21674605 0.08363872 -0.04256668
000020 4e 36 95 3d d8 44 76 3d 7b fa 9e 3d 7f 77 1a 3e
       0.072857484 0.06012425 0.07762619 0.15084647
000030 cd 1c 95 3d e8 dc f3 3d a8 8e b7 3d ab ee 89 3c
       0.07280884 0.11907369 0.089627564 0.016837439
000040 94 cd 53 bd d2 d7 f3 bc 2c 71 a1 bc d1 f4 3e 3c
       -0.051709726 -0.029765997 -0.019707285 0.0116550485
000050 0f 5f 07 bd 20 9d 2c 3e 84 35 04 bd 57 71 3c bd
       -0.03304964 0.16856813 -0.0322776 -0.046006527
000060 97 b5 64 3c 22 41 f8 bd 03 33 95 3b 53 97 b1 3d
       0.01395931 -0.12121798 0.0045532 0.08671441
000070 2e ee 4d 3d 92 e2 2b 3d 40 eb 08 3e 92 9c 82 bd
       0.050275974 0.04196412 0.13370991 -0.0637752
000080 06 f6 07 3a 64 0a f4 bc ee ad ca 3d 78 04 02 3d
       0.00051865017 -0.02979011 0.09896456 0.031742543
000090 f8 a6 42 3e 10 84 f5 3d 4f c3 e7 3d 1a f2 91 3d
       0.19009006 0.119880795 0.11316549 0.07126255
0000a0 23 32 59 bc 40 b1 f9 3d 5f 12 21 3e 06 80 43 3e
       -0.013256582 0.12192011 0.15729664 0.19091806
0000b0 fa 0f e6 3d 41 94 bd 3d 67 c5 d2 3d a7 1c 00 3d
       0.11233516 0.09256793 0.10291558 0.031277325
0000c0 f4 77 d4 3d 65 42 9e 3d c8 ae 1e 3e 1f 66 13 3e
       0.10374442 0.077275075 0.15496361 0.14394425
0000d0 64 4e c1 bd 88 49 9d bc 8e 8c 61 bc eb a5 e2 3d
       -0.0943878 -0.019200101 -0.013766421 0.110668026
0000e0 22 41 29 3e f1 e9 cc 3c 06 ad d4 3d 30 b9 12 bd
       0.16528752 0.025013896 0.10384564 -0.03582114
0000f0 5a 85 8f 3d ae 24 62 bd 96 5c c0 3b b2 08 80 3c
       0.07007857 -0.05521076 0.005870412 0.015629146

fc3.weight f4 [46, 64]
000000 33 97 30 bf 55 fa ab 3d 4e 41 ac bd 0c 65 45 bf
       -0.6898071 0.083973564 -0.084108934 -0.7710731
000010 3c b1 a6 bd e9 8b b3 3d ec 0e b0 3d db 8e b9 3d
       -0.081392735 0.0876692 0.08596596 0.09060451
000020 22 52 91 3d cb 5b 1b 3e a3 32 06 3e fe c2 d4 be
       0.07095744 0.15171735 0.13105254 -0.41555017
000030 ad 1d a3 be e4 e3 3a bf 09 d7 e2 be 0f ea 05 3e
       -0.31858578 -0.73003983 -0.44304684 0.13077568
000040 57 74 f7 3d 29 3f 09 3e 57 b8 e6 3d 72 f0 85 3c
       0.12082737 0.13403 0.11265629 0.016350005
000050 81 43 1d bf f0 df 23 bc cc a6 32 bf 58 b4 c8 3d
       -0.6143113 -0.010002121 -0.6978576 0.09800023
000060 86 e7 64 bf 6d 08 04 bf db 18 18 bf 92 68 2b 3e
       -0.89415777 -0.51575357 -0.59412926 0.16739109
000070 c3 dd 5f bf 03 48 33 bc e0 e9 26 bf eb 1c 13 3e
       -0.87447757 -0.010942462 -0.65200615 0.143665
000080 83 b4 48 3e 22 a2 e9 be 39 5c 29 3d f1 93 4c 3d
       0.1960011 -0.4563151 0.041347716 0.049945775
000090 a1 dc da 3d 11 d8 22 bf 06 20 24 3e b3 9b 3f 3e
       0.10686613 -0.6361094 0.16027841 0.18711738
0000a0 72 01 de 3d 74 0b ea be 9e ce c9 be 87 aa 12 bf
       0.108401194 -0.45711863 -0.3941545 -0.57291454
0000b0 64 35 e5 be 08 96 fc 3d 9a 5e 43 be e4 6c e9 be
       -0.44767296 0.12333304 -0.19079056 -0.4559089
0000c0 e7 96 4c 3e 11 6e 35 bd 68 69 09 bf bc 63 51 3c
       0.1997944 -0.04429442 -0.5367646 0.012780126
0000d0 70 82 02 3e 33 f7 fa 3d e5 e6 89 3c 67 d6 89 3d
       0.1274507 0.12254181 0.016833732 0.06730347
0000e0 ba 32 6b bf 12 05 d8 3d bc 1d fd 3d b4 05 64 bd
       -0.9187428 0.10547842 0.12359187 -0.0556695
0000f0 5b cb e6 3d 05 ee 63 bf 93 9f 88 3d a5 78 14 3e
       0.11269256 -0.89035064 0.06671061 0.14499147
000100 39 20 8d be 31 e3 19 bf 5e e6 2d be 92 66 0d bf
       -0.27563646 -0.6011229 -0.1698241 -0.55234635
000110 d5 fd 2c 3e e5 d7 be bd e7 33 ff bc 22 b4 34 3b
       0.16893704 -0.09318522 -0.031152679 0.0027573188
000120 c2 8a b2 3d 50 54 d7 bd fc 21 df 3d 29 8e bb bf
       0.08717872 -0.10514128 0.10895154 -1.4652759
000130 0c 70 0f be e8 e8 8d 3d dd 58 6f bc 34 e4 80 3d
       -0.14007586 0.06929189 -0.014608589 0.06293526
000140 9f d9 db 3d 81 87 9b 3d a2 b5 55 3d 1e 18 29 3e
       0.10734867 0.07594205 0.05217517 0.16513106
000150 62 87 cb 3d 41 72 11 3d ef d7 1b bf 42 12 6b bf
       0.099379316 0.03550935 -0.60876364 -0.91824734
000160 66 8c da bd 57 22 2f bf 4d a8 29 bf 7b fd 5d 3e
       -0.1067131 -0.68411773 -0.6627243 0.21678726
000170 4c c7 71 bf a5 73 0c be f8 59 34 3d 15 a0 0e be
       -0.9444473 -0.1371599 0.044031113 -0.13928254
000180 eb f9 1f bf eb e3 89 bf 74 32 05 3d 7f ea 5e be
       -0.6249072 -1.077268 0.03251882 -0.2176914
000190 43 ff f9 bd d6 49 05 3e 2a fd 69 bf fb 70 45 3d
       -0.122068904 0.13016447 -0.9140192 0.04820345
0001a0 22 5d 0f 3e b0 c4 84 bf 5b ff f3 3d b7 ed d4 3d
       0.14000371 -1.0372524 0.119139396 0.10396903
0001b0 73 cd 26 be 3b 56 16 3e 14 6b 0a bf f7 88 02 3e
       -0.1628931 0.14681332 -0.5406964 0.1274756
0001c0 a4 29 f7 be a3 dd 15 3e e4 b0 56 bf 4d a8 98 3d
       -0.48273957 0.14635329 -0.83863664 0.07453976
0001d0 4c 9c c1 3d b3 41 b4 3d 39 34 1b 3e 31 dc 35 bf
       0.094536394 0.08801594 0.1515664 -0.7103911
0001e0 56 ee 07 3e eb e8 86 3d 03 17 60 3d 48 86 6e bd
       0.13274512 0.06587394 0.054709446 -0.05823353
0001f0 bb 97 b6 be 0e 91 9f bf 0d 5c e4 3d 56 21 66 3e
       -0.35662636 -1.2466142 0.1115037 0.22473654
000200 67 8c fb be e4 96 e4 bd 4e 87 f3 3d 55 29 33 bf
       -0.49130556 -0.111615926 0.11891042 -0.6998494
000210 21 9c 49 be 12 8b 6d bf 20 c6 46 bf 02 e5 b1 3d
       -0.19688465 -0.9279033 -0.77646065 0.08686258
000220 15 31 a6 bd 03 80 1a bf c3 a4 9b 3d be 95 d9 bd
       -0.081148304 -0.6035158 0.07599785 -0.10624264
000230 3e 8d b3 3d 1c 80 00 3e 83 38 9f bf d2 7d 1f 3e
       0.08767174 0.1254887 -1.2439121 0.1557534
000240 e7 87 39 3e 31 a7 47 bd e7 4e 5a 3e 97 77 c5 3d
       0.18118249 -0.04874343 0.21319161 0.096419506
000250 96 ee 4a bf ee e1 2d 3e 32 35 1a bf a0 fe 1d 3e
       -0.79270303 0.16980717 -0.6023742 0.15429163
000260 dc 28 09 3e 87 ba ab bf 7b 6d 35 bf 8b 37 16 bf
       0.13394493 -1.3416299 -0.7087018 -0.586785
000270 09 71 b4 3d 4d 2d 83 bd e4 e6 82 bf 59 0b ba 3d
       0.08810622 -0.06405125 -1.0226712 0.09084196
000280 83 e4 6d 3e ab d7 97 3d aa 47 5b be cc 2c 68 be
       0.23231702 0.07414182 -0.21414056 -0.22673339
000290 31 13 c3 3c a0 04 2d bd d4 f9 6e 3e 38 c9 0e bf
       0.023812862 -0.04224074 0.2333749 -0.55775785
0002a0 46 a9 29 be bb 91 06 3e 41 0b 80 bf b8 4f 46 bf
       -0.16568479 0.1314153 -1.0003434 -0.7746539
0002b0 44 e4 c1 3d 60 c7 f9 3d f9 9f 12 3e 89 df 49 bf
       0.09467366 0.12196231 0.14318837 -0.7885671
0002c0 48 39 17 be 9d 37 8f be 53 f0 cc be e3 10 c5 3c
       -0.14767945 -0.27972117 -0.40027103 0.024055904
0002d0 6d 18 7f 3e b8 bc 03 3e 6f 3f e8 be 2f 11 2c 3e
       0.24911661 0.12864959 -0.45360896 0.1680343
0002e0 0e a6 45 bf 34 f1 e1 bd 41 df 03 bf f0 ba 30 bf
       -0.77206504 -0.11032334 -0.51512533 -0.69035244
0002f0 ce 68 73 bd 6e 1c e0 be 55 d4 16 bf 7e 01 8d be
       -0.05942612 -0.4377169 -0.5891774 -0.275402
000300 a7 d5 f5 3d 30 34 95 bd 5f fe a2 3d 0e 23 17 3e
       0.120036416 -0.072853446 0.07958674 0.14759466
000310 89 da 0c 3e 92 76 1c bf dc 1a 74 3d 94 6e cc be
       0.1375524 -0.61118424 0.059595928 -0.39928114
000320 c2 0b 32 be b3 28 57 bf d5 a1 f5 be 43 3e 66 bd
       -0.17387298 -0.8404648 -0.4797503 -0.05621172
000330 7d ef 63 bf 53 19 04 bd c9 47 db bd 81 1f 3b bf
       -0.89037305 -0.032250714 -0.10707051 -0.73094946
000340 e5 0d d8 be 33 48 e8 3d 1a 06 16 3e 03 18 1c bf
       -0.421981 0.11341896 0.14650765 -0.6097414
000350 37 da 5a 3d 9e 2d 42 bf d9 12 30 3e ea ee 21 bf
       0.053430762 -0.75850856 0.1719469 -0.6325518
000360 66 6b 19 3e 87 c6 d9 3a 24 28 38 3d 82 a2 8c 3e
       0.14982376 0.0016614952 0.044960156 0.27467734
000370 45 f4 81 be a1 65 5a bf ab 93 03 bd fc c7 cf be
       -0.25381675 -0.85311323 -0.03212325 -0.40582263
000380 ba ad e6 be 9c e0 44 3d 3d 29 20 3e ef cd 20 3d
       -0.45054418 0.048065767 0.15640731 0.039258894
000390 1d 9f 91 bd a0 b8 0c 3e 61 20 1a bf db 91 83 be
       -0.071104266 0.13742304 -0.60205656 -0.25697216
0003a0 b0 e7 a9 3d 79 9e 04 bd c5 d3 22 3e 35 a2 a1 bd
       0.08296144 -0.032377694 0.15901096 -0.07892267
0003b0 30 0a 46 bf c5 d5 88 be b7 63 e1 be 2d 2c 25 3e
       -0.77359295 -0.26725593 -0.4402139 0.16130133
0003c0 00 1b 0b bf 05 5f 85 be 74 0a 82 bf dd ac b1 3d
       -0.54338074 -0.26049057 -1.015944 0.08675549
0003d0 e3 31 9b be 90 c7 2f 3e 28 28 1a 3e 5f cf f4 be
       -0.30311498 0.17165971 0.15054381 -0.47814462
0003e0 7f fe fd 3d 25 8a c4 be db c1 1f bf a6 59 dd bd
       0.12402057 -0.38386646 -0.62405175 -0.10808115
0003f0 91 e3 06 be f6 ef 33 be 2e ea 3e bf 8c bd 57 3e
       -0.13172747 -0.17572007 -0.7457608 0.210684

fc3.bias f4 [46]
000000 27 e1 0e 3d e4 f1 21 be fd a1 de bd 7b 89 bd bd
       0.03488269 -0.1581493 -0.108707406 -0.09254738
000010 03 5d 31 be 33 7a 87 bc 84 5c 1b bd dd 59 71 be
       -0.17320637 -0.016537761 -0.037930027 -0.23569436
000020 0c d4 97 3d 8b b3 8a bd 5d ec 45 3e e0 76 86 be
       0.074134916 -0.06772526 0.19328447 -0.2626257
000030 50 9e 3d be 45 03 41 be d8 fd f8 3d d2 fe d7 bb
       -0.18517423 -0.18848903 0.12157792 -0.0065916562
000040 83 fc a3 3c 35 2e 52 bd 98 a6 58 3e a8 53 92 3d
       0.020017868 -0.051313598 0.211573 0.071448624
000050 9f a5 14 3d 4f 71 0b bd 61 1b d9 3d 88 cd 88 bd
       0.03629076 -0.034043606 0.10600925 -0.06679827
000060 09 cc ee 3d a7 32 9d 3d f3 24 89 bd e1 0d 7e 3e
       0.1166001 0.07675677 -0.06696501 0.24809982
000070 b2 56 9b be 2b 86 f5 bd c3 38 40 3e 7a c4 8b bd
       -0.3033958 -0.11988481 0.18771653 -0.06824584
000080 60 fa 08 3e ca 2a 23 3e 5b 14 5f 3e 81 3b 3e 3e
       0.1337676 0.15934291 0.21785109 0.18577386
000090 32 d1 00 be d8 2c b0 bd 57 ad 16 be 88 70 2c 3e
       -0.12579802 -0.08602303 -0.14714561 0.16839802
0000a0 5b e2 82 3d e8 c1 56 bd b8 ea 53 be 41 75 92 3e
       0.0639083 -0.052431017 -0.20695007 0.28605083
0000b0 f2 d5 ff be d5 ad a1 bd
       -0.49967915 -0.07894484
