chatbot_model.pth (torch, 169373 bytes, 6 tensors)

fc1.weight f4 [128, 236]
00000000: 2a18 3dbc 10dc d5bd ce84 743d 0e54 0f3d
00000010: efba 9cba 0e4a cf3d 2359 5a3e 4c1e 7e3e
00000020: 8159 673e ba60 d0bd 1012 00be b83d bebe
00000030: df94 823d d37e 2bbd b0dd fe3d 5105 573e
00000040: 26d4 4c3e 0c91 5f3d 9f70 f23c c063 ea3b
00000050: 9ef6 3b3e 8e4c 7abd 4c64 fd3d 8200 96bd
00000060: 3185 8fbe 48e9 36be 4e93 bf3b de1e 3b3e
00000070: 1d71 edbc 4549 9c3e 1b56 1f3e 6dab 09bd
00000080: 2aa0 c93e 8dbc 213f 53c1 40be 19f0 373e
00000090: 5f9a 973d c1a4 1abe c038 983d bf18 0f3d
000000a0: 8e9b 02be 78f3 0abe 8a7f 34bd 931d b5be
000000b0: 022d 14be 6356 a4bd e61c 60be ffe1 f1bd
000000c0: 22a0 c93e 9e3b e0bc a68a 863d d09d 87bd
000000d0: f564 8c3c ee43 533e d1b9 11be 60a8 d2be
000000e0: 1020 8dbd ed8f 94be 9b85 47bc 11a6 ca3c
000000f0: da90 b53e f27d 743c 6a4f 1b3e 4a74 373d
00000100: f1ce 17be bbb7 45be ec29 69bd bb6c ba3d
00000110: f12f 02be d48e a23d 3db7 923e e393 08be
00000120: 11f5 b0bb a95e 1bbe 66f9 7d3e 2729 3e3d
00000130: 6501 a9bd ce9e 903e 02c5 5bbc f3aa 8bbe
00000140: cb96 86bd 90bb 38be ecb3 7ebd 14fa b63c
00000150: ed43 233e 239b 843d bf8f eabd 6c13 103e
00000160: 00c5 ffbd bc51 613e af6e bc3d cc7b 633b
00000170: d579 8b3d 48ac a1be 1e76 2a3e b51b a53e
00000180: 1bd8 85bc 002c 0ebe 8de9 983e 518e 38be
00000190: 2174 db3d 4eeb b23e 89a3 ea3e 77cd ea3d
000001a0: 1fd5 afbd e93e 263f 8df2 e63e 6654 b5bc
000001b0: ad34 7bbd b17e 40bd 634c 30bd 1d9b a4bd
000001c0: 87f3 88bd 9d51 31be 2ec0 6dbd 45ca 74bd
000001d0: e3e8 313e 1134 45be cc12 94be bff0 56bd
000001e0: 98b4 28be cdcf 5bbd e740 58bd cb95 66bd
000001f0: 0253 363d 3eb6 fa3b 6291 ac3e 8361 713e
00000200: 80c0 2abd b7eb bbbe 669f 7dbd 1b63 493e
00000210: a222 a2bd 7978 dcbd 6ce3 953d 6571 a9bc
00000220: a33b 3e3d ccd3 04be b70b 6c3e 229f 1bbe
00000230: 3a3c 52be 980a d63e 6af6 9b3d c0a6 e03e
00000240: 7dd2 2dbd 182f 413d 1ae0 a1be 348a b7bc
00000250: 0d52 80bd eabb fd39 49f7 97bd ae5c 21be
00000260: 4e2e f1bd 5b60 e0bd afc1 8bbd 21a4 12be
00000270: a01c 2bbd 97c8 6dbe 44cf 9cbd a9a4 d0bd
00000280: 39b4 303e d038 f4bb 4fd4 fa3e ecad 893e
00000290: a629 99be 50dc e6bd 2850 0a3e fd5b 2cbd
000002a0: de21 17be 234e c83d 1ffb f93d c702 c33b
000002b0: e9f3 91be c1c7 75be 26dc 2cbe 61b7 1bbe
000002c0: 7206 393d 3e13 1dbd 3b0e 9dbd 013c 58bc
000002d0: 14ea 0e3d b8b9 1b3c 9115 a1bd fbc6 b4bd
000002e0: 8033 6c3c c402 a23d 92bb ac3e 6747 efbd
000002f0: c618 b7bd a838 e73e 9155 423f 1e59 623d
00000300: e5f1 cf3e b4e8 febd 9fb9 b03e 6de1 ca3e
00000310: 80cc b9bd 7807 d43d 41d0 b93b b5cc 8c3d
00000320: b012 5bbd 2b51 c0bc 6499 c43d 8548 673e
00000330: fe6e 353d 8563 bcbc 9867 b23e e825 353e
00000340: 7c9d 583b 0576 64bd f4bd 03be f07f 403e
00000350: 604e 503e 4834 b63e 48a5 36be badf 3d3e
00000360: a341 0abe e9c4 8a3d 2b03 a9bc 4cd5 723e
00000370: 43a6 a6bd de8e 0f3d 8062 c4bc 3f7b 9c3c
00000380: 9348 7a3e 6459 f5bd 1838 023e 1ab7 04be
00000390: 71ef b1bc fbab 6abd bd5d 19be 8811 353e
000003a0: e9a3 de3d ef87 66bd 9b7f 6dbe 17d6 99bd
000003b0: 684b 993d e227 0d3f 1b70 253e 21ad b43d
000003c0: b38b 8fbd e4d7 7bbe ec1e b1bd db3a e93d
000003d0: fb57 12bb c7a4 42be 59e5 b63c 4b5a 37be
000003e0: 4a2c a63d e27a f33d 7504 953d 52ab 173d
000003f0: 50f0 c63e e7cd ba3e 7d6c 603e 7738 7fbe
-0.011541406 -0.10442364 0.059696965 0.03499227 -0.0011957566 0.10121547 0.21323065 0.24816245
0.22592737 -0.10174699 -0.1250689 -0.37156463 0.06376051 -0.041868996 0.12444627 0.20998122
0.20002803 0.054581687 0.029594718 0.0071530044 0.18355796 -0.061108164 0.12372646 -0.073243156
-0.28031304 -0.17862427 0.0058464175 0.18273494 -0.0289846 0.3052465 0.1556019 -0.03361075
0.39380008 0.6317833 -0.18823747 0.17962684 0.07402491 -0.15101911 0.07432699 0.03493571
-0.12754652 -0.13569438 -0.044066943 -0.35374126 -0.14470294 -0.080242895 -0.21886024 -0.118106835
0.39379984 -0.027372178 0.06569414 -0.06621897 0.017137984 0.20631382 -0.1423104 -0.41144085
-0.06890881 -0.29016057 -0.01217785 0.02473739 0.35462075 0.014922606 0.15167013 0.044788636
-0.14825036 -0.19308369 -0.056924745 0.0910277 -0.127136 0.079373986 0.28655425 -0.13337664
-0.005400308 -0.15172829 0.24802169 0.046425965 -0.08252219 0.28246158 -0.01341367 -0.2727886
-0.0657173 -0.180403 -0.062183306 0.022336043 0.1594388 0.064749025 -0.11453199 0.14069909
-0.12488747 0.22003835 0.09200799 0.003471124 0.06810347 -0.31576753 0.1664662 0.322477
-0.016338399 -0.13883972 0.29865685 -0.1802304 0.10715509 0.34945148 0.45827892 0.114649706
-0.085855715 0.64939743 0.45106927 -0.02213497 -0.061329532 -0.046995822 -0.043041598 -0.08037398
-0.06687074 -0.17316289 -0.058044605 -0.05976321 0.17373995 -0.19258143 -0.2892059 -0.052475687
-0.16475141 -0.05366497 -0.05279627 -0.056295197 0.044512756 0.0076511195 0.33704668 0.23572354
-0.04168749 -0.36703274 -0.061919592 0.19666712 -0.07916762 -0.10765166 0.07318768 -0.020683954
0.046443593 -0.12971419 0.23051344 -0.15197423 -0.20530787 0.41804957 0.07615359 0.4387722
-0.042437065 0.047164053 -0.31616288 -0.022404768 -0.0626565 0.00048395927 -0.07420213 -0.1575801
-0.1177641 -0.10955878 -0.068240516 -0.14320423 -0.041775346 -0.2322105 -0.0765672 -0.101876564
0.1725625 -0.0074530616 0.48990104 0.26890504 -0.29914588 -0.1127249 0.1350714 -0.042079914
-0.14759013 0.097805284 0.12206101 0.005951259 -0.285064 -0.24001981 -0.16880855 -0.15206672
0.045172162 -0.03834843 -0.0766873 -0.0131979 0.034891203 0.009504728 -0.078654416 -0.08827015
0.014416575 0.07910684 0.33736855 -0.11683541 -0.08940272 0.45160413 0.75911814 0.05526077
0.40614238 -0.12446728 0.34516618 0.3962511 -0.090722084 0.10352987 0.0056705778 0.06874982
-0.05348462 -0.023476204 0.095995694 0.22586258 0.044295304 -0.022996673 0.3484466 0.17690241
0.0033052852 -0.055776615 -0.1286543 0.18798804 0.20342398 0.35586762 -0.17836487 0.18542376
-0.13501601 0.06775839 -0.020631393 0.23714179 -0.08137181 0.03504836 -0.02397275 0.019101737
0.24441747 -0.119799405 0.1271671 -0.12960473 -0.02172062 -0.05729292 -0.14977165 0.17682469
0.10871107 -0.05628198 -0.23193209 -0.075115375 0.07485086 0.5513898 0.16156046 0.08822084
-0.070090674 -0.24594074 -0.08648476 0.11388179 -0.0022330272 -0.1900817 0.022326158 -0.17905538
0.08113916 0.118886724 0.07276241 0.03702862 0.3885522 0.36485216 0.21916385 -0.24923883

fc1.bias f4 [128]
00000000: b68a b93d 0817 6e3e 7277 a33d 4977 0f3e
00000010: 1b02 f03d d34c fa3d e95e 8b3d 917b ba3d
00000020: 6025 55bd 14e0 4bbd 5bd1 373d 5f79 4b3e
00000030: 5db9 203e dc22 0d3e e939 133c b8a5 ea3d
00000040: f422 5bbc 02dc 813d 4587 b83d 93c7 9c3d
00000050: 3c8c 343e 0dca 073e 0529 473e e852 fa3d
00000060: 93cf c53d a6c2 0f3e 3739 503d 0509 5f3e
00000070: 98de 333d 2fab 243d c7ca 2d3e a4cb c83d
00000080: dc4d d43d 7d29 ec3d ab13 223e 9e16 003e
00000090: 3079 3e3d 65cb c53d b4af 5d3d 1522 083e
000000a0: b866 0d3c 082c 6d3e 1519 3e3d 34d9 0b3e
000000b0: 0650 073e 1d18 783b 2f46 363e 458f 463e
000000c0: 9605 bc3c b1e8 713e b81b 153d 2773 a93d
000000d0: ce97 973d a09a d13d 458a 1b3e 2e4a da3d
000000e0: fbfe f63d fccd 9f3d 4860 183e a99a d13d
000000f0: 86c2 7c3d 72ef ad3d 60fb 643d 9cae 003e
00000100: 6de9 ae3c 8040 9d3d b8cd 733d 45d9 acbd
00000110: df62 633e 9ab6 713e e1d0 4f3e 409a 303e
00000120: f057 603d c831 083d ee07 5c3e cc05 653d
00000130: 777c 853d d2ef 0a3e 8188 f73d 8faf 0c3e
00000140: 836f 833c 111a 553d 77c8 2b3e 8733 153d
00000150: 310b be3d aa5b 573e fffe c33d 3528 693e
00000160: e85b 843e 3dcd fc3d 6caf 8c3d 9ce6 583d
00000170: 7d6f 9f3d 38d0 1f3e 18f2 a53d d30a 493e
00000180: 1be8 30bb 8d64 943d 2dfb 953d 6dcc 203e
00000190: b2ee 223e 8d28 2d3e 46c6 2d3e a586 b73d
000001a0: 3ed6 cf3d 5b13 973d fda3 473e 3dfc 013e
000001b0: df95 363d 9283 be3d 116b ed3d 296c 083e
000001c0: 7047 263e 9444 a73d 255b 103e c127 773d
000001d0: 4cb6 d53d 5cf0 233e d542 6abd eeb3 083d
000001e0: 3ee2 c03d c1b0 693d 6bac 583d 5509 643e
000001f0: 13a9 e63d 1bc1 e13c be5b e63d 9e34 a63d
0.0905966 0.23250973 0.07981767 0.14010347 0.117191516 0.12221684 0.06805212 0.091056
-0.052037597 -0.049774244 0.04487739 0.19870518 0.1569571 0.13782829 0.008985975 0.114573896
-0.013375033 0.06340791 0.090101756 0.07655253 0.1763162 0.1326067 0.19449241 0.12222844
0.09658732 0.14039096 0.050835814 0.21780784 0.043913454 0.040202316 0.16971885 0.09804466
0.10366413 0.11531351 0.15827815 0.12508628 0.046502292 0.09657935 0.05412264 0.13294251
0.008630447 0.23161328 0.04641064 0.13657075 0.1321412 0.003785617 0.1780021 0.1939059
0.022951882 0.23623921 0.036403388 0.08273917 0.07402001 0.102345705 0.15189464 0.1065868
0.120603524 0.0780296 0.14880478 0.10234577 0.06170895 0.08492936 0.055903792 0.12566608
0.02135154 0.07678318 0.05952236 -0.084398784 0.22205685 0.23604813 0.20294525 0.17246342
0.054771364 0.0332506 0.214874 0.05591373 0.065178804 0.13568047 0.12086583 0.13738845
0.016044384 0.052026812 0.1677569 0.036426093 0.09279478 0.21031061 0.09570121 0.22769244
0.2585137 0.123438336 0.068693966 0.0529543 0.077849366 0.15606773 0.08102816 0.19633035
-0.0026993814 0.07245741 0.073232986 0.15702982 0.15911368 0.1691 0.16970167 0.08961228
0.10148285 0.07376739 0.1949615 0.12693878 0.044576522 0.09302439 0.11592687 0.1332251
0.16238189 0.08167377 0.14097269 0.060340647 0.10435161 0.16009659 -0.057192642 0.03337472
0.09418152 0.05705333 0.052898806 0.22269185 0.11262717 0.0275579 0.11247967 0.08115505

fc2.weight f4 [64, 128]
00000000: 262e 083f 48eb 1a3e 6145 03bf 79d7 f03e
00000010: 53a7 27bd 580a 15be e945 80be 9063 a9bc
00000020: b3ae 8abe dbc4 2dbe 94fc 183e 0cba 0abe
00000030: 377c 6f3e 81ba ad3e 1b99 883e b86e 93be
00000040: a5a2 193d 2344 d0be 6cf9 09be 1744 213d
00000050: a499 c4be c6a0 fc3e dbe4 8b3e 48a3 2abd
00000060: 290a 303f fb79 b9be 0c39 23be 11ac c73e
00000070: 96bb b5bd 947f 86bd 8d94 65bd 5259 fdbd
00000080: ea9c 05bf 7a3e f3bd 39eb c7bd 5de8 f73d
00000090: 509c db3d da53 9c3e 8b1c 233f 1b93 5ebe
000000a0: 0cbd fe3e ed6f 78be 7122 b43d f8ac 9abe
000000b0: 66b3 a73e 2d9f d63d 9db9 983e 0b7b e6bd
000000c0: 7d12 ccbd cae3 c13c a095 ba3d 79e4 23be
000000d0: 9597 873e eed7 1cbe c73c 0c3b b68d 173f
000000e0: 7c7b 6e3e bdee 8e3c 43ca ab3d 3461 b93e
000000f0: 6ed3 ffbe 1c34 2ebe b848 443d 46f8 5dbc
00000100: d796 9a3e eadc 90be 1d15 43be 26df c0be
00000110: 02ba d93b 3980 8b3e ae98 633b 2884 913e
00000120: 4e41 cd3e f704 81be 5310 b03d 6b8c d43e
00000130: bb8b 5dbe 5c6e 97bd 28db e0bc 8ae2 ecbd
00000140: ae23 d13d c372 c83e 3e90 e1bd 50b2 b73e
00000150: 0b7f 3abe d6b4 ffbd 8ec2 f3bd d3cc 203d
00000160: f279 4a3c f4ae a63c c864 a83e 8e64 533e
00000170: 6db7 893d d83a afbd 3833 fa3e 2e5b fdbd
00000180: 0746 a2be a112 1d3e fdbc 55be 4f85 2abe
00000190: 43e7 4cbe 3699 c9be 4e1a 233e bafc bf3c
000001a0: e970 f33b 428b f73e 085e 063c baf9 5ebe
000001b0: 9a3e 5bbe 6eb6 9a3d c661 27bd 47a6 34be
000001c0: 9ba7 6e3e d59d 31be 5654 9dbc bf05 093f
000001d0: 5ce4 043e 308b bf3e 4e9e e53c 5f77 883e
000001e0: 7b1a 0c3f f93c 91be 3f95 bbbe e45f 76bd
000001f0: 8a02 87bd 6978 9fbc 0afe 7cbe 5fb9 b03e
00000200: 357a aabd c416 58bd f47f 2cbe f445 49be
00000210: a78c 213e 35ce 523d 4518 9ebe 7ce9 acbe
00000220: 9279 d63d f510 c2bd 52b4 fcbd 1931 6c3e
00000230: 4222 9fbc 8c68 f13e 892c cabd fddd bfbe
00000240: fb94 aabd bab0 51be 998e b1be 5248 833f
00000250: 9d98 45be 0854 24bf 9018 60bd 01a1 e93e
00000260: e632 893d 8b55 b93d 55ba 74bd 1792 7e3e
00000270: fcc9 2fbe c0c4 fdbe ce97 823e 35c3 233e
00000280: d85e 6c3e b125 bebd a745 bbbd 14d6 9a3d
00000290: d2ea 9e3d a50a f13e 0193 95bb 72ad f03d
000002a0: 93b2 9c3b 0c7c 543e 28d5 8dbe 507b 5c3c
000002b0: 3f14 45bc 9851 b23c d491 bf3d 6f75 d1be
000002c0: 8ed5 d1bc f111 5cbd 0083 32be 9fc5 2f3e
000002d0: 185c 10be cfbe f7bd 65eb 683e 171c 46bd
000002e0: 213d 373f 7c14 1b3f 4830 cd3d 828f 383e
000002f0: 91f7 afbe db7c 943c dd9b 543e 71cb 31be
00000300: 5854 073e c8f2 bdbe 25b1 06be 26fd 67be
00000310: abc4 c83e bec4 0f3e 6ed6 43be d11f 55bd
00000320: c4aa 0abf b68f cebd 4194 fabd b476 e43e
00000330: acaf 1ebf e967 503d 1351 773e 0e14 eb3e
00000340: e339 0c3e 42fa 27bd 47c5 a9be edc2 3fbd
00000350: 448a 813e 7784 053f f0b0 debd 8416 403f
00000360: bb32 fe3d ebf6 073e 538d bcbd 9cc4 b93e
00000370: f69d 523e 4e93 323f 4778 cf39 6225 1cbe
00000380: c489 c8be fb2d ecbe c282 973d 8483 37be
00000390: 518f a7b9 3e9d bebb c31d 0c3e fb75 e2bd
000003a0: 358d be3e 4f67 b9bd 8cfc 913e 9ead 433e
000003b0: fd03 12be 0e7d aa3d b5cb 963c e1e8 133e
000003c0: 814d 63be 5c63 863d ac7b 18be c100 bbbc
000003d0: 4589 cebd c739 b4bd a95d d5bd ab09 df3d
000003e0: f7fe fb3d 7d30 e3be 84df 0a3d bfb4 ad3e
000003f0: 17ea 3fbe bbc0 e8bd dac1 b7be c80a 00be
0.53195417 0.15128815 -0.5127774 0.47039393 -0.040931057 -0.14554727 -0.25053337 -0.020677358
-0.2708641 -0.16969626 0.14940101 -0.13547534 0.23387228 0.33931354 0.2667931 -0.2879541
0.037508626 -0.40676984 -0.13474053 0.039371576 -0.38398468 0.4934141 0.2732304 -0.041659623
0.68765503 -0.36225876 -0.1593973 0.38998464 -0.0887367 -0.06567302 -0.056049872 -0.12370552
-0.52192557 -0.11877151 -0.09761662 0.12104867 0.107231736 0.30532724 0.6371543 -0.21735804
0.49753606 -0.24261446 0.08795632 -0.3021009 0.32754058 0.10479579 0.29829112 -0.11253937
-0.09964464 0.023668189 0.0911057 -0.16005124 0.26482835 -0.15316746 0.002139853 0.5920061
0.23289293 0.017447824 0.08388188 0.36206973 -0.49965996 -0.17012066 0.047920913 -0.0135479625
0.30193207 -0.28293544 -0.19051023 -0.3767025 0.0066444883 0.27246264 0.0034728455 0.2842114
0.40088886 -0.251991 0.085968636 0.4151338 -0.21635334 -0.07394096 -0.027448252 -0.115666464
0.102118835 0.39150056 -0.1101384 0.3587823 -0.18212526 -0.124856636 -0.11902343 0.039257836
0.012358176 0.020347096 0.3288939 0.20643827 0.06724439 -0.085561454 0.48867202 -0.12370907
-0.31694052 0.15339138 -0.20872875 -0.16652416 -0.20010094 -0.39374703 0.15928003 0.02343594
0.0074292314 0.48348433 0.00820113 -0.2177495 -0.214106 0.07554327 -0.04086473 -0.17641555
0.23306124 -0.17345364 -0.019205254 0.5352439 0.12977737 0.3741088 0.028029587 0.26653573
0.54727906 -0.2836683 -0.36637303 -0.060150042 -0.06592281 -0.019466596 -0.24706283 0.34516427
-0.083240904 -0.052756086 -0.16845685 -0.19655591 0.15776311 0.051466186 -0.3087789 -0.33771884
0.104724064 -0.094758905 -0.12339081 0.23065604 -0.019425515 0.47150075 -0.09871776 -0.3747405
-0.08329197 -0.20477572 -0.34679106 1.0256445 -0.19296499 -0.6419072 -0.054710925 0.4563065
0.06699161 0.09049519 -0.059748013 0.24860416 -0.17166895 -0.4956417 0.25506443 0.15992434
0.23083055 -0.09284533 -0.091441445 0.075603634 0.07759632 0.47078434 -0.0045646434 0.11751832
0.00478203 0.20750445 -0.27701688 0.013457134 -0.012028753 0.021767423 0.093539864 -0.40909907
-0.025614526 -0.053728048 -0.17432785 0.1716523 -0.14097631 -0.12096941 0.22746046 -0.048366632
0.7157765 0.6057813 0.100189745 0.18023494 -0.34368566 0.018125942 0.20762582 -0.17362763
0.13215768 -0.3709929 -0.13153513 -0.22655162 0.39212546 0.14039895 -0.19124767 -0.052032296
-0.5416682 -0.100860044 -0.122353084 0.44621813 -0.61986804 0.050880346 0.24152021 0.45913738
0.13693957 -0.04101015 -0.33158323 -0.046816755 0.253008 0.5215525 -0.10873592 0.75034356
0.1241202 0.13277785 -0.09206643 0.36282814 0.2056807 0.6975602 0.0003957173 -0.15248635
-0.39167607 -0.4612883 0.07397987 -0.17921263 -0.000319595 -0.0058170846 0.13683228 -0.11057659
0.37217107 -0.09052908 0.2851299 0.19109198 -0.14259334 0.083246335 0.018407682 0.14444305
-0.22197534 0.0656192 -0.14890927 -0.022827508 -0.10084776 -0.08800083 -0.10418255 0.10890516
0.1230449 -0.4437293 0.033904567 0.3392696 -0.18741642 -0.113648854 -0.35890085 -0.12504113

fc2.bias f4 [64]
00000000: 29eb af3c 5f8f 803e a771 1b3e 3afc 14bd
00000010: 000c 5c3e 8ced 993d 8dde 9fbd d4a4 003e
00000020: dd49 bb3d a880 92bd c7b3 27bc 4e22 f23b
00000030: a44b 0e3d acd1 823d b898 873d fc40 a73d
00000040: c26b 453c c6ae a53d 750b 1f3a e52d e73d
00000050: db9d d23d 1ee6 4ebd 405f 7f3d fec8 0fbc
00000060: 8110 ac3d dbd1 8abd c93a 24be 40a4 56bc
00000070: 6aa3 83bc ba34 7d3e d4ac 2d3e c22e ef3d
00000080: d029 08be bec3 a83d 85c6 d23b 9d66 96b9
00000090: 1d98 1f3e 80bf 21be 3fc7 5fbd 1130 573e
000000a0: 8af3 293e 3ace 333e 26c8 0cbe 7f4b 403d
000000b0: 6867 e6bc 6a2d 673d e1f1 3e3e 7e90 8e3d
000000c0: 755c 443e d6e7 633e 4421 973e 381b 0fbe
000000d0: 279f 9e3c 41ae 193c afa6 863d c6e9 bbbd
000000e0: 6df0 433e 3876 cf3d 8740 003e bf25 0c3e
000000f0: 9e57 273e 639f 7b3e 9fa0 8fbd 818d e5bd
0.021474438 0.25109383 0.15180074 -0.036373354 0.21488953 0.075160116 -0.0780612 0.12562877
0.09144948 -0.071534455 -0.010235733 0.0073893433 0.034740105 0.06387648 0.06620926 0.08166692
0.012049617 0.08089976 0.0006067076 0.112880506 0.10284015 -0.050512426 0.062346697 -0.008775948
0.08401585 -0.06778308 -0.1603805 -0.013100684 -0.016069133 0.24727145 0.1696046 0.1167884
-0.132972 0.0824046 0.006432357 -0.00028686682 0.1558537 -0.15795708 -0.054633375 0.2101443
0.16596809 0.17559138 -0.13748226 0.046947 -0.02812548 0.056439795 0.18646957 0.069611534
0.19175895 0.22256407 0.29517567 -0.13975227 0.019363 0.009379924 0.06574761 -0.09175448
0.19134684 0.1012997 0.12524615 0.13686274 0.16342017 0.2457252 -0.07013058 -0.1120863

fc3.weight f4 [46, 64]
00000000: 7249 66bd d38b 6d3e bf90 a03c fa60 b4bf
00000010: 9069 3cbf 7b96 e53d fb0d eabc b8af 053e
00000020: f2cd c53d 65e9 943c b7eb 04bf 482c 0c3e
00000030: f261 1abf 1461 303e 8149 97bf a7b5 8b3d
00000040: e7f6 673e 8b3d 9fbe 10e3 80bf 7cf0 5b3e
00000050: d7ca 9f3d 925b ae3b cc9e efbe 736e 24be
00000060: 1468 09bf 881f 153e 36bf 38be b89f c3be
00000070: 36ba e6bd 69f6 32bf 9bf9 65be faed 383e
00000080: 3dce 60bf 51ed 16bf 8cb8 be3d 9e30 0a3e
00000090: bf96 183e 3348 6c3d 4e02 4ebf 6205 8d3d
000000a0: 8b21 29bf dff1 2f3e 0c4b 98bd c8d1 d23c
000000b0: 8abf 13bf b828 4cbf 07d3 b93d b1b9 1d3e
000000c0: d353 43bf ef5c a33d 8d66 fdbe d869 203d
000000d0: bb15 c63b ed21 093e 9f3d 1d3d 4406 8abc
000000e0: 1fb5 b13d 9068 393e 431e 053e e2db 92bf
000000f0: 0cf5 963d f80a e6bd 0c40 93bc 1583 f3bb
00000100: 193f e0be d23b d4be 082b d7be 2263 063e
00000110: bd7d 44bf c644 8d3d af9f 7b3d ea6c 46bf
00000120: a4cd 183e b415 113e 21b8 22be 9028 8e3d
00000130: 859a 68bf df9c 603e e7a7 a4bd e3cd 29be
00000140: 2ace 503e 865b 64bf 3354 29bf dbe4 c8be
00000150: 688f ea3d 01b4 54bf 09dd 38bf bd86 353d
00000160: f2c4 043e 8be0 083e 7c91 aa3c 6374 38bf
00000170: 93b1 c73d da8b 87bf 6e52 253d b17c ec3d
00000180: d03e 9a3d e480 20bf 862c 70bf b21e 9b3d
00000190: 5a80 773e 12ac 7cbf b797 19bf daa7 ad3c
000001a0: cef2 f5bb 76f9 83be bb5f 103d 6458 ac3c
000001b0: ad33 b43d 67dd 8cbe 777d 5dbd 94d2 8d3d
000001c0: 8a14 b73d 874e 193e efc1 8f3d 9a66 9ebf
000001d0: c208 f93d 0979 3b3e 529a 023e 030a 8fbc
000001e0: 429e d13c c2da b63b 259d 42bc c3d9 40bc
000001f0: 1877 51be 265b 5dbf daf5 92bb 1ce7 92bf
00000200: a134 2abf 9878 27bd e83c 46bf ebc3 163e
00000210: b9c4 14bf 8db1 af3d 98a4 073e 367a babd
00000220: 2ca7 03bf db88 59bf bda7 983d 0ef1 55bf
00000230: 1826 9e3d 0f57 b5be afa6 a4ba ed0e 35bf
00000240: f281 203e 9341 8ebf 62fc 223e 1493 36bf
00000250: 9e96 52bf c324 fbbe 207c aebd 843c 183e
00000260: f33c 113e 3466 f43d d98d 80bf 5ec2 c1be
00000270: 8021 d03d af68 74bd 28f6 34bf 9af4 58be
00000280: 9897 1c3e 8871 173e abda b43c d6b5 c03d
00000290: 677c ea3c cf13 30be a4ef a0be dba3 60bf
000002a0: bc4c e0be 8116 1abf 151d 47bf 8d50 fd3c
000002b0: 90e4 803d 6f7c dcbe 8cfb 6bbf 0794 6d3e
000002c0: 7754 02be c118 ed3d e2fc a93c efff abbc
000002d0: 6fd6 a03d 0e4e 8a3e 327b 3f3d 69e5 e3be
000002e0: ee32 743d 3e45 54be eb69 abbd 99dc 6ebf
000002f0: f9c3 783e 4df0 0cbf 19b9 ea3d 5457 d63d
00000300: 6e36 6ebf 3319 ccbe 3768 10bf 47c9 34be
00000310: f05a fbbe 54b2 3f3e e2c7 58bc 59c3 c3be
00000320: e57a a13d 01d9 f5bc 6de9 1ebb ac8a 41bf
00000330: 7450 0a3e 7ac4 febd ec60 2e3e 1760 5dbe
00000340: 82a9 543e 3127 1b3e 04ed 113e 5d52 593e
00000350: 9a81 00bf 39e6 23be e542 cdbd 0901 11bd
00000360: 4a19 da3d 2169 05bf fdd1 113e 374d 983d
00000370: c79f 75be af57 eebd 6e90 56bc 2c22 5cbf
00000380: 9ce5 9e3d 2c64 483e 1f58 80bc 3c1e 45bf
00000390: 3821 37bf ac35 0c3e a55c 833d 7aff 22bf
000003a0: 1a1c 42bf b8ab 4abf 83ba 023e 5892 0d3c
000003b0: 477f 953d 8b5b 0e3b b048 48bf fec0 223e
000003c0: 6cc6 93bf 6c43 fcbc e838 82bf 1de0 d63d
000003d0: 6782 97bd b8c4 783d 6a6c 313c 11a4 363d
000003e0: 8a04 1d3d 8ab1 61bf e7fb 4d3d b09d a3bf
000003f0: f30f 2fbf da52 30bf 2ac1 dd3c 8dc3 ff3d
-0.056222387 0.2319787 0.01960027 -1.4092095 -0.73598576 0.112103425 -0.02857112 0.13055313
0.096584216 0.018177697 -0.5192217 0.13688767 -0.603057 0.17224532 -1.1819307 0.06821757
0.2265278 -0.3110164 -1.0069294 0.21478456 0.078023605 0.0053209746 -0.4680084 -0.16057758
-0.53674436 0.1456281 -0.18041691 -0.38207793 -0.11265986 -0.6990724 -0.22458498 0.18059531
-0.87814695 -0.58955866 0.09312543 0.13495108 0.14901255 0.057686042 -0.80472267 0.06885792
-0.6606681 0.1718211 -0.07436189 0.025734797 -0.5771414 -0.7974963 0.090734534 0.15402867
-0.7629978 0.0797671 -0.49492303 0.03916344 0.006045071 0.13391848 0.038388845 -0.01684869
0.08677124 0.18106294 0.12999825 -1.1473353 0.07370958 -0.11232561 -0.017974876 -0.0074313977
-0.4379814 -0.4145189 -0.42025018 0.13123754 -0.7675436 0.06897883 0.061431583 -0.7750994
0.14922196 0.14168435 -0.15890552 0.069413304 -0.9086078 0.21934842 -0.08039837 -0.16582446
0.20391145 -0.89202154 -0.661441 -0.39237103 0.11453134 -0.83087164 -0.7221227 0.04431795
0.12965754 0.13366906 0.020821325 -0.7205259 0.097506665 -1.0589554 0.040361814 0.115472205
0.07531512 -0.6269667 -0.9381794 0.07574214 0.24170056 -0.9870006 -0.59997123 0.021198202
-0.007505751 -0.2577626 0.035247546 0.021038242 0.08798919 -0.27512667 -0.05407473 0.0692493
0.089394644 0.14971362 0.07019412 -1.2375062 0.121598735 0.1830789 0.12754181 -0.017460829
0.025588159 0.005580277 -0.0118782865 -0.011770668 -0.20455587 -0.86467206 -0.004484874 -1.1476779
-0.66486555 -0.04088649 -0.77436686 0.14723174 -0.58112675 0.08578787 0.13246381 -0.09105341
-0.5142696 -0.8497445 0.074538685 -0.83570945 0.077221096 -0.35417983 -0.0012561883 -0.707259
0.1567457 -1.1113762 0.15916589 -0.71318173 -0.82261074 -0.49051484 -0.08519769 0.14866835
0.14183407 0.11933556 -1.0043288 -0.37843603 0.101626396 -0.059670147 -0.70688105 -0.21187058
0.15292203 0.14789402 0.022076925 0.094096825 0.028623773 -0.17195056 -0.3143283 -0.87750024
-0.43808544 -0.6019059 -0.7777875 0.030922199 0.06293595 -0.43063685 -0.92180705 0.23200999
-0.12727533 0.11576987 0.020750467 -0.020996062 0.078534 0.27012676 0.046748348 -0.44510964
0.059618883 -0.20729539 -0.083698116 -0.93305355 0.24293508 -0.5505417 0.11461086 0.10465875
-0.93051803 -0.39862975 -0.5640902 -0.17654906 -0.49092817 0.1872037 -0.0132312495 -0.38234976
0.078847684 -0.030010702 -0.002424802 -0.7560222 0.13507253 -0.12439819 0.1702916 -0.21618687
0.20767787 0.15151669 0.1425057 0.21222825 -0.50197756 -0.16005792 -0.10022525 -0.035401378
0.10649355 -0.5211354 0.1424026 0.074366026 -0.23986731 -0.11637818 -0.013095958 -0.8598964
0.07758638 0.19569463 -0.01566702 -0.7699926 -0.7153506 0.13692349 0.06414155 -0.63671076
-0.7582413 -0.7916827 0.12766461 0.008640848 0.07299667 0.0021722044 -0.7823591 0.15893933
-1.1544929 -0.030793868 -1.0173616 0.10491965 -0.07397919 0.06073448 0.010829071 0.04459006
0.038334407 -0.8816153 0.05028906 -1.2782497 -0.6838371 -0.6887642 0.027069647 0.1248847

fc3.bias f4 [46]
00000000: 41ec 13be c801 dabd 9603 c9bd b7a1 13bd
00000010: b615 08be 73bd 63be adec 04be cf16 07be
00000020: e486 0f3e a684 a8bd ad5f 123e c3bd 11be
00000030: 9b6b 2abc 9355 123d 5dfd 493e cb8b a13e
00000040: c3c0 9dbd 188c 153e 81cf 683e 6d0c a73e
00000050: ec2d 9ebb 13b8 42be b659 ecbd 764d a83d
00000060: 4936 323e d58c 9fbd 88cb 8dbe b87a 0b3d
00000070: 4485 503d 4fcb 903c 7d41 0abe 7c89 2a3e
00000080: b8b0 adbe e2fa 063e a0b2 2f3e dc63 213e
00000090: c725 5f3c 55fb e43d 1fff 9d3d 8b74 263e
000000a0: c252 b4be 2078 433e 7f31 c2bd a997 b2bd
000000b0: f6fe 9dbe cd35 1d3d
-0.14445592 -0.10644871 -0.09815137 -0.036042895 -0.13289532 -0.22240238 -0.1298091 -0.13192295
0.140163 -0.08228426 0.1429431 -0.14232545 -0.010401632 0.03572614 0.19725557 0.31551966
-0.07702782 0.14604223 0.22735406 0.32626668 -0.0048272517 -0.19015531 -0.115405485 0.082178995
0.1740352 -0.077905335 -0.27694345 0.03405258 0.050908342 0.01767507 -0.13501544 0.16654009
-0.33923888 0.13181642 0.17157984 0.1576075 0.013619847 0.1118075 0.07714676 0.16255395
-0.3521939 0.19088793 -0.09482097 -0.08720333 -0.30858582 0.038381387
